…
curves, both curves represent the loss. One curve is known as validation loss
curve while other is described as training loss curve. In the process of dividing
data into training and test sets in machine learning, the primary distinction lies
in their purposes: training data, a subset of original dataset, is utilized to train
model, whereas test data is employed to evaluate the model’s accuracy. Typically,
the majority of data is allocated for training, while a smaller portion is reserved

LSTM Method: A Case Study of Pakistan Stock Market Volatility139
Table 6: LSTM structure.
Layer (type) Output Shape Param #
lstm 1 (LSTM) (None, 14, 64) 18,944
lstm (LSTM) (None, 32) 12,416
dropout (Dropout) (None, 32) 0
flatten (Flatten) (None, 32) 0
dense (Dense) (None, 1) 33
Total params 31,393
Trainable params 31,393
Non-trainable params 0
Figure 8: Training loss and validation loss.
for testing. As looking on Figure 9, the validation loss is better than training
loss, usually in training loss probably high. The main thing to describe that the
difference between both curves should be minimum. It is clear from Figure 9 that
as number of epochs increases, the difference between curves remains minimum.
…
